Found 3539 images belonging to 2 classes.
Found 725 images belonging to 2 classes.
Found 328 images belonging to 2 classes.
Model: "sequential"
_________________________________________________________________
Layer (type)                 Output Shape              Param #   
=================================================================
conv2d (Conv2D)              (None, 224, 224, 64)      640       
_________________________________________________________________
max_pooling2d (MaxPooling2D) (None, 112, 112, 64)      0         
_________________________________________________________________
conv2d_1 (Conv2D)            (None, 112, 112, 128)     73856     
_________________________________________________________________
max_pooling2d_1 (MaxPooling2 (None, 56, 56, 128)       0         
_________________________________________________________________
flatten (Flatten)            (None, 401408)            0         
_________________________________________________________________
dense (Dense)                (None, 2)                 802818    
=================================================================
Total params: 877,314
Trainable params: 877,314
Non-trainable params: 0
_________________________________________________________________
Epoch 1/20
354/353 - 178s - loss: 5.3778 - accuracy: 0.7708 - val_loss: 0.5981 - val_accuracy: 0.7297
Epoch 2/20
354/353 - 167s - loss: 0.2092 - accuracy: 0.9226 - val_loss: 0.7259 - val_accuracy: 0.7338
…
